…
tion":{"iopub.status.busy":"2024-05-30T07:42:06.570777Z","iopub.execute_input":"2024-05-30T07:42:06.571497Z","iopub.status.idle":"2024-05-30T07:42:06.604085Z","shell.execute_reply.started":"2024-05-30T07:42:06.571460Z","shell.execute_reply":"2024-05-30T07:42:06.603055Z"},"trusted":true},"execution_count":25,"outputs":[{"name":"stdout","text":"Model: \"sequential_1\"\n_________________________________________________________________\n Layer (type)                Output Shape              Param #   \n=================================================================\n conv2d (Conv2D)             (None, 126, 126, 200)     2000      \n                                                                 \n max_pooling2d (MaxPooling2  (None, 42, 42, 200)       0         \n D)                                                              \n                                                                 \n conv2d_1 (Conv2D)           (None, 40, 40, 100)       180100    \n                                                                 \n max_pooling2d_1 (MaxPoolin  (None, 13, 13, 100)       0         \n g2D)                                                            \n                                                                 \n flatten (Flatten)           (None, 16900)             0         \n                                                                 \n dense (Dense)               (None, 100)               1690100   \n                                                                 \n dense_1 (Dense)             (None, 50)                5050      \n                                                                 \n dense_2 (Dense)             (None, 3)                 153       \n                                                                 \n=================================================================\nTotal params: 1877403 (7.16 MB)\nTrainable params: 1877403 (7.16 MB)\nNon-trainable params: 0 (0.00 Byte)\n_________________________________________________________________\n","output_type":"stream"}]},{"cell_type":"code","source":"for idx, layer in enumerate(model.layers):\n    print(f\"Layer {idx}:\", layer.name, layer.output_shape, layer.count_params())","metadata":{"execution":{"iopub.status.busy":"2024-05-30T07:42:13.190698Z","iopub.execute_input":"2024-05-30T07:42:13.191101Z","iopub.status.idle":"2024-05-30T07:42:13.197797Z","shell.execute_reply.started":"2024-05-30T07:42:13.191069Z","shell.execute_reply":"2024-05-30T07:42:13.196821Z"},"trusted":true},"execution_count":26,"outputs":[{"name":"stdout","text":"Layer 0: conv2d (None, 126, 126, 200) 2000\nLayer 1: max_pooling2d (None, 42, 42, 200) 0\nLayer 2: conv2d_1 (None, 40, 40, 100) 180100\nLayer 3: max_pooling2d_1 (None, 13, 13, 100) 0\nLayer 4: flatten (None, 16900) 0\nLayer 5: dense (None, 100) 1690100\nLayer 6: dense_1 (None, 50) 5050\nLayer 7: dense_2 (None, 3) 153\n","output_type":"stream"}]},{"cell_type":"code","source":"model_arch = tf.keras.utils.plot_model(model, show_shapes = True, to_file='model_architecture.png')\nmodel_arch","metadata":{"execution":{"iopub.status.busy":"2024-05-30T07:43:43.555885Z","iopub.execute_input":"2024-05-30T07:43:43.556383Z","iopub.status.idle":"2024-05-30T07:43:43.825075Z","shell.execute_reply.started":"2024-05-30T07:43:43
…
